…
torch.Size([8, 256, 38, 38])    torch.Size([8, 256, 19, 19])    torch.Size([8, 256, 38, 38])

 s :
torch.Size([8, 512, 38, 38])
k: 0
 s0,s1:
torch.Size([8, 512, 19, 19])    torch.Size([8, 512, 19, 19])
k: 1
x:
torch.Size([8, 512, 10, 10])
k: 2
x:
torch.Size([8, 256, 5, 5])
k: 3
x:
torch.Size([8, 256, 3, 3])
k: 4
x:
torch.Size([8, 256, 1, 1])

 sources - - - ->

torch.Size([8, 512, 38, 38])
torch.Size([8, 1024, 19, 19])
torch.Size([8, 512, 10, 10])
torch.Size([8, 256, 5, 5])
torch.Size([8, 256, 3, 3])
torch.Size([8, 256, 1, 1])
^C




'''
CFENet(
  (base): ModuleList(
    (0): Conv2d(3, 64, kernel_size=(3, 3), stride=(1, 1), padding=(1, 1))
    (1): ReLU(inplace=True)
    (2): Conv2d(64, 64, kernel_size=(3, 3), stride=(1, 1), padding=(1, 1))
    (3): ReLU(inplace=True)
    (4): MaxPool2d(kernel_size=2, stride=2, padding=0, dilation=1, ceil_mode=False)
    (5): Conv2d(64, 128, kernel_size=(3, 3), stride=(1, 1), padding=(1, 1))
    (6): ReLU(inplace=True)
    (7): Conv2d(128, 128, kernel_size=(3, 3), stride=(1, 1), padding=(1, 1))
    (8): ReLU(inplace=True)
    (9): MaxPool2d(kernel_size=2, stride=2, padding=0, dilation=1, ceil_mode=False)
    (10): Conv2d(128, 256, kernel_size=(3, 3), stride=(1, 1), padding=(1, 1))
    (11): ReLU(inplace=True)
    (12): Conv2d(256, 256, kernel_size=(3, 3), stride=(1, 1), padding=(1, 1))
    (13): ReLU(inplace=True)
    (14): Conv2d(256, 256, kernel_size=(3, 3), stride=(1, 1), padding=(1, 1))
    (15): ReLU(inplace=True)
    (16): MaxPool2d(kernel_size=2, stride=2, padding=0, dilation=1, ceil_mode=True)
    (17): Conv2d(256, 512, kernel_size=(3, 3), stride=(1, 1), padding=(1, 1))
    (18): ReLU(inplace=True)
    (19): Conv2d(512, 512, kernel_size=(3, 3), stride=(1, 1), padding=(1, 1))
    (20): ReLU(inplace=True)
    (21): Conv2d(512, 512, kernel_size=(3, 3), stride=(1, 1), padding=(1, 1))
    (22): ReLU(inplace=True)
    (23): MaxPool2d(kernel_size=2, stride=2, padding=0, dilation=1, ceil_mode=False)
    (24): Conv2d(512, 512, kernel_size=(3, 3), stride=(1, 1), padding=(1, 1))
    (25): ReLU(inplace=True)
    (26): Conv2d(512, 512, kernel_size=(3, 3), stride=(1, 1), padding=(1, 1))
    (27): ReLU(inplace=True)
    (28): Conv2d(512, 512, kernel_size=(3, 3), stride=(1, 1), padding=(1, 1))
    (29): ReLU(inplace=True)
    (30): MaxPool2d(kernel_size=3, stride=1, padding=1, dilation=1, ceil_mode=False)
    (31): Conv2d(512, 1024, kernel_size=(3, 3), stride=(1, 1), padding=(6, 6), dilation=(6, 6))
    (32): ReLU(inplace=True)
    (33): Conv2d(1024, 1024, kernel_size=(1, 1), stride=(1, 1))
    (34): ReLU(inplace=True)
  )
  (Norm): BatchNorm2d(512, eps=1e-05, momentum=0.01, affine=True, track_running_stats=True)
  (reduce1): BasicConv(
    (conv): Conv2d(512, 256, kernel_size=(3, 3), stride=(1, 1), padding=(1, 1), bias=False)
    (bn): BatchNorm2d(256, eps=1e-05, momentum=0.01, affine=True, track_running_stats=True)
    (relu): ReLU(inplace=True)
  )
  (up_reduce1): BasicConv(
    (conv): Conv2d(1024, 256, kernel_size=(1, 1), stride=(1, 1), bias=False)
    (bn): BatchNorm2d(256, eps=1e-05, momentum=0.01, affine=True, track_running_stats=True)
    (relu): ReLU(inplace=True)
  )
  (reduce2): BasicConv(
    (conv): Conv2d(1024, 512, kernel_size=(1, 1), stride=(1, 1), bias=False)
    (bn): BatchNorm2d(512, eps=1e-05, momentum=0.01, affine=True, track_running_stats=True)
    (relu): ReLU(inplace=True)
  )
  (up_reduce2): BasicConv(
    (conv): Conv2d(1024, 512, kernel_size=(1, 1), stride=(1, 1), bias=False)
    (bn): BatchNorm2d(512, eps=1e-05, momentum=0.01, affine=True, track_running_stats=True)
    (relu): ReLU(inplace=True)
  )
  (arterial): ModuleList(
    (0): CFEM(
      (cfem_a): ModuleList(
        (0): BasicConv(
          (conv): Conv2d(1024, 1024, kernel_size=(1, 7), stride=(1, 1), padding=(0, 3), groups=8, bias=False)
          (bn): BatchNorm2d(1024, eps=1e-05, momentum=0.01, affine=True, track_running_stats=True)
        )
        (1): BasicConv(
          (conv): Conv2d(1024, 256, kernel_size=(1, 1), stride=(1, 1), bias=False)
          (bn): BatchNorm2d(256, eps=1e-05, momentum=0.01, affine=True, track_running_stats=True)
          (relu): ReLU(inplace=True)
        )
        (2): BasicConv(
          (conv): Conv2d(256, 256, kernel_size=(3, 3), stride=(1, 1), padding=(1, 1), groups=4, bias=False)
          (bn): BatchNorm2d(256, eps=1e-05, momentum=0.01, affine=True, track_running_stats=True)
          (relu): ReLU(inplace=True)
        )
        (3): BasicConv(
          (conv): Conv2d(256, 256, kernel_size=(7, 1), stride=(1, 1), padding=(3, 0), groups=8, bias=False)
          (bn): BatchNorm2d(256, eps=1e-05, momentum=0.01, affine=True, track_running_stats=True)
        )
        (4): BasicConv(
          (conv): Conv2d(256, 256, kernel_size=(1, 1), stride=(1, 1), bias=False)
          (bn): BatchNorm2d(256, eps=1e-05, momentum=0.01, affine=True, track_running_stats=True)
          (relu): ReLU(inplace=True)
        )
      )
      (cfem_b): ModuleList(
        (0): BasicConv(
          (conv): Conv2d(1024, 1024, kernel_size=(7, 1), stride=(1, 1), padding=(3, 0), groups=8, bias=False)
          (bn): BatchNorm2d(1024, eps=1e-05, momentum=0.01, affine=True, track_running_stats=True)
        )
        (1): BasicConv(
          (conv): Conv2d(1024, 256, kernel_size=(1, 1), stride=(1, 1), bias=False)
          (bn): BatchNorm2d(256, eps=1e-05, momentum=0.01, affine=True, track_running_stats=True)
          (relu): ReLU(inplace=True)
        )
        (2): BasicConv(
          (conv): Conv2d(256, 256, kernel_size=(3, 3), stride=(1, 1), padding=(1, 1), groups=4, bias=False)
          (bn): BatchNorm2d(256, eps=1e-05, momentum=0.01, affine=True, track_running_stats=True)
          (relu): ReLU(inplace=True)
        )
        (3): BasicConv(
          (conv): Conv2d(256, 256, kernel_size=(1, 7), stride=(1, 1), padding=(0, 3), groups=8, bias=False)
          (bn): BatchNorm2d(256, eps=1e-05, momentum=0.01, affine=True, track_running_stats=True)
        )
        (4): BasicConv(
          (conv): Conv2d(256, 256, kernel_size=(1, 1), stride=(1, 1), bias=False)
          (bn): BatchNorm2d(256, eps=1e-05, momentum=0.01, affine=True, track_running_stats=True)
          (relu): ReLU(inplace=True)
        )
      )
      (ConvLinear): BasicConv(
        (conv): Conv2d(512, 1024, kernel_size=(1, 1), stride=(1, 1), bias=False)
        (bn): BatchNorm2d(1024, eps=1e-05, momentum=0.01, affine=True, track_running_stats=True)
      )
      (shortcut): BasicConv(
        (conv): Conv2d(1024, 1024, kernel_size=(1, 1), stride=(1, 1), bias=False)
        (bn): BatchNorm2d(1024, eps=1e-05, momentum=0.01, affine=True, track_running_stats=True)
      )
      (relu): ReLU()
    )
    (1): CFEM(
      (cfem_a): ModuleList(
        (0): BasicConv(
          (conv): Conv2d(1024, 1024, kernel_size=(1, 7), stride=(1, 1), padding=(0, 3), groups=8, bias=False)
          (bn): BatchNorm2d(1024, eps=1e-05, momentum=0.01, affine=True, track_running_stats=True)
        )
        (1): BasicConv(
          (conv): Conv2d(1024, 256, kernel_size=(1, 1), stride=(1, 1), bias=False)
          (bn): BatchNorm2d(256, eps=1e-05, momentum=0.01, affine=True, track_running_stats=True)
          (relu): ReLU(inplace=True)
        )
        (2): BasicConv(
          (conv): Conv2d(256, 256, kernel_size=(3, 3), stride=(2, 2), padding=(1, 1), groups=4, bias=False)
          (bn): BatchNorm2d(256, eps=1e-05, momentum=0.01, affine=True, track_running_stats=True)
          (relu): ReLU(inplace=True)
        )
        (3): BasicConv(
          (conv): Conv2d(256, 256, kernel_size=(7, 1), stride=(1, 1), padding=(3, 0), groups=8, bias=False)
          (bn): BatchNorm2d(256, eps=1e-05, momentum=0.01, affine=True, track_running_stats=True)
        )
        (4): BasicConv(
          (conv): Conv2d(256, 256, kernel_size=(1, 1), stride=(1, 1), bias=False)
          (bn): BatchNorm2d(256, eps=1e-05, momentum=0.01, affine=True, track_running_stats=True)
          (relu): ReLU(inplace=True)
        )
      )
      (cfem_b): ModuleList(
        (0): BasicConv(
          (conv): Conv2d(1024, 1024, kernel_size=(7, 1), stride=(1, 1), padding=(3, 0), groups=8, bias=False)
          (bn): BatchNorm2d(1024, eps=1e-05, momentum=0.01, affine=True, track_running_stats=True)
        )
        (1): BasicConv(
          (conv): Conv2d(1024, 256, kernel_size=(1, 1), stride=(1, 1), bias=False)
          (bn): BatchNorm2d(256, eps=1e-05, momentum=0.01, affine=True, track_running_stats=True)
          (relu): ReLU(inplace=True)
        )
        (2): BasicConv(
          (conv): Conv2d(256, 256, kernel_size=(3, 3), stride=(2, 2), padding=(1, 1), groups=4, bias=False)
          (bn): BatchNorm2d(256, eps=1e-05, momentum=0.01, affine=True, track_running_stats=True)
          (relu): ReLU(inplace=True)
        )
        (3): BasicConv(
          (conv): Conv2d(256, 256, kernel_size=(1, 7), stride=(1, 1), padding=(0, 3), groups=8, bias=False)
          (bn): BatchNorm2d(256, eps=1e-05, momentum=0.01, affine=True, track_running_stats=True)
        )
        (4): BasicConv(
          (conv): Conv2d(256, 256, kernel_size=(1, 1), stride=(1, 1), bias=False)
          (bn): BatchNorm2d(256, eps=1e-05, momentum=0.01, affine=True, track_running_stats=True)
          (relu): ReLU(inplace=True)
        )
      )
      (ConvLinear): BasicConv(
        (conv): Conv2d(512, 512, kernel_size=(1, 1), stride=(1, 1), bias=False)
        (bn): BatchNorm2d(512, eps=1e-05, momentum=0.01, affine=True, track_running_stats=True)
      )
      (shortcut): BasicConv(
        (conv): Conv2d(1024, 512, kernel_size=(1, 1), stride=(2, 2), bias=False)
        (bn): BatchNorm2d(512, eps=1e-05, momentum=0.01, affine=True, track_running_stats=True)
      )
      (relu): ReLU()
    )
    (2): CFEM(
      (cfem_a): ModuleList(
        (0): BasicConv(
          (conv): Conv2d(512, 512, kernel_size=(1, 7), stride=(1, 1), padding=(0, 3), groups=8, bias=False)
          (bn): BatchNorm2d(512, eps=1e-05, momentum=0.01, affine=True, track_running_stats=True)
        )
        (1): BasicConv(
          (conv): Conv2d(512, 128, kernel_size=(1, 1), stride=(1, 1), bias=False)
          (bn): BatchNorm2d(128, eps=1e-05, momentum=0.01, affine=True, track_running_stats=True)
          (relu): ReLU(inplace=True)
        )
        (2): BasicConv(
          (conv): Conv2d(128, 128, kernel_size=(3, 3), stride=(2, 2), padding=(1, 1), groups=4, bias=False)
          (bn): BatchNorm2d(128, eps=1e-05, momentum=0.01, affine=True, track_running_stats=True)
          (relu): ReLU(inplace=True)
        )
        (3): BasicConv(
          (conv): Conv2d(128, 128, kernel_size=(7, 1), stride=(1, 1), padding=(3, 0), groups=8, bias=False)
          (bn): BatchNorm2d(128, eps=1e-05, momentum=0.01, affine=True, track_running_stats=True)
        )
        (4): BasicConv(
          (conv): Conv2d(128, 128, kernel_size=(1, 1), stride=(1, 1), bias=False)
          (bn): BatchNorm2d(128, eps=1e-05, momentum=0.01, affine=True, track_running_stats=True)
          (relu): ReLU(inplace=True)
        )
      )
      (cfem_b): ModuleList(
        (0): BasicConv(
          (conv): Conv2d(512, 512, kernel_size=(7, 1), stride=(1, 1), padding=(3, 0), groups=8, bias=False)
          (bn): BatchNorm2d(512, eps=1e-05, momentum=0.01, affine=True, track_running_stats=True)
        )
        (1): BasicConv(
          (conv): Conv2d(512, 128, kernel_size=(1, 1), stride=(1, 1), bias=False)
          (bn): BatchNorm2d(128, eps=1e-05, momentum=0.01, affine=True, track_running_stats=True)
          (relu): ReLU(inplace=True)
        )
        (2): BasicConv(
          (conv): Conv2d(128, 128, kernel_size=(3, 3), stride=(2, 2), padding=(1, 1), groups=4, bias=False)
          (bn): BatchNorm2d(128, eps=1e-05, momentum=0.01, affine=True, track_running_stats=True)
          (relu): ReLU(inplace=True)
        )
        (3): BasicConv(
          (conv): Conv2d(128, 128, kernel_size=(1, 7), stride=(1, 1), padding=(0, 3), groups=8, bias=False)
          (bn): BatchNorm2d(128, eps=1e-05, momentum=0.01, affine=True, track_running_stats=True)
        )
        (4): BasicConv(
          (conv): Conv2d(128, 128, kernel_size=(1, 1), stride=(1, 1), bias=False)
          (bn): BatchNorm2d(128, eps=1e-05, momentum=0.01, affine=True, track_running_stats=True)
          (relu): ReLU(inplace=True)
        )
      )
      (ConvLinear): BasicConv(
        (conv): Conv2d(256, 256, kernel_size=(1, 1), stride=(1, 1), bias=False)
        (bn): BatchNorm2d(256, eps=1e-05, momentum=0.01, affine=True, track_running_stats=True)
      )
      (shortcut): BasicConv(
        (conv): Conv2d(512, 256, kernel_size=(1, 1), stride=(2, 2), bias=False)
        (bn): BatchNorm2d(256, eps=1e-05, momentum=0.01, affine=True, track_running_stats=True)
      )
      (relu): ReLU()
    )
    (3): CFEM(
      (cfem_a): ModuleList(
        (0): BasicConv(
          (conv): Conv2d(256, 256, kernel_size=(1, 7), stride=(1, 1), padding=(0, 3), groups=8, bias=False)
          (bn): BatchNorm2d(256, eps=1e-05, momentum=0.01, affine=True, track_running_stats=True)
        )
        (1): BasicConv(
          (conv): Conv2d(256, 64, kernel_size=(1, 1), stride=(1, 1), bias=False)
          (bn): BatchNorm2d(64, eps=1e-05, momentum=0.01, affine=True, track_running_stats=True)
          (relu): ReLU(inplace=True)
        )
        (2): BasicConv(
          (conv): Conv2d(64, 64, kernel_size=(3, 3), stride=(2, 2), padding=(1, 1), groups=4, bias=False)
          (bn): BatchNorm2d(64, eps=1e-05, momentum=0.01, affine=True, track_running_stats=True)
          (relu): ReLU(inplace=True)
        )
        (3): BasicConv(
          (conv): Conv2d(64, 64, kernel_size=(7, 1), stride=(1, 1), padding=(3, 0), groups=8, bias=False)
          (bn): BatchNorm2d(64, eps=1e-05, momentum=0.01, affine=True, track_running_stats=True)
        )
        (4): BasicConv(
          (conv): Conv2d(64, 64, kernel_size=(1, 1), stride=(1, 1), bias=False)
          (bn): BatchNorm2d(64, eps=1e-05, momentum=0.01, affine=True, track_running_stats=True)
          (relu): ReLU(inplace=True)
        )
      )
      (cfem_b): ModuleList(
        (0): BasicConv(
          (conv): Conv2d(256, 256, kernel_size=(7, 1), stride=(1, 1), padding=(3, 0), groups=8, bias=False)
          (bn): BatchNorm2d(256, eps=1e-05, momentum=0.01, affine=True, track_running_stats=True)
        )
        (1): BasicConv(
          (conv): Conv2d(256, 64, kernel_size=(1, 1), stride=(1, 1), bias=False)
          (bn): BatchNorm2d(64, eps=1e-05, momentum=0.01, affine=True, track_running_stats=True)
          (relu): ReLU(inplace=True)
        )
        (2): BasicConv(
          (conv): Conv2d(64, 64, kernel_size=(3, 3), stride=(2, 2), padding=(1, 1), groups=4, bias=False)
          (bn): BatchNorm2d(64, eps=1e-05, momentum=0.01, affine=True, track_running_stats=True)
          (relu): ReLU(inplace=True)
        )
        (3): BasicConv(
          (conv): Conv2d(64, 64, kernel_size=(1, 7), stride=(1, 1), padding=(0, 3), groups=8, bias=False)
          (bn): BatchNorm2d(64, eps=1e-05, momentum=0.01, affine=True, track_running_stats=True)
        )
        (4): BasicConv(
          (conv): Conv2d(64, 64, kernel_size=(1, 1), stride=(1, 1), bias=False)
          (bn): BatchNorm2d(64, eps=1e-05, momentum=0.01, affine=True, track_running_stats=True)
          (relu): ReLU(inplace=True)
        )
      )
      (ConvLinear): BasicConv(
        (conv): Conv2d(128, 256, kernel_size=(1, 1), stride=(1, 1), bias=False)
        (bn): BatchNorm2d(256, eps=1e-05, momentum=0.01, affine=True, track_running_stats=True)
      )
      (shortcut): BasicConv(
        (conv): Conv2d(256, 256, kernel_size=(1, 1), stride=(2, 2), bias=False)
        (bn): BatchNorm2d(256, eps=1e-05, momentum=0.01, affine=True, track_running_stats=True)
      )
      (relu): ReLU()
    )
    (4): Conv2d(256, 256, kernel_size=(3, 3), stride=(1, 1))
  )
  (lateral): ModuleList(
    (0): CFEM(
      (cfem_a): ModuleList(
        (0): BasicConv(
          (conv): Conv2d(512, 512, kernel_size=(1, 7), stride=(1, 1), padding=(0, 3), groups=8, bias=False)
          (bn): BatchNorm2d(512, eps=1e-05, momentum=0.01, affine=True, track_running_stats=True)
        )
        (1): BasicConv(
          (conv): Conv2d(512, 256, kernel_size=(1, 1), stride=(1, 1), bias=False)
          (bn): BatchNorm2d(256, eps=1e-05, momentum=0.01, affine=True, track_running_stats=True)
          (relu): ReLU(inplace=True)
        )
        (2): BasicConv(
          (conv): Conv2d(256, 256, kernel_size=(3, 3), stride=(1, 1), padding=(2, 2), dilation=(2, 2), groups=4, bias=False)
          (bn): BatchNorm2d(256, eps=1e-05, momentum=0.01, affine=True, track_running_stats=True)
          (relu): ReLU(inplace=True)
        )
        (3): BasicConv(
          (conv): Conv2d(256, 256, kernel_size=(7, 1), stride=(1, 1), padding=(3, 0), groups=8, bias=False)
          (bn): BatchNorm2d(256, eps=1e-05, momentum=0.01, affine=True, track_running_stats=True)
        )
        (4): BasicConv(
          (conv): Conv2d(256, 256, kernel_size=(1, 1), stride=(1, 1), bias=False)
          (bn): BatchNorm2d(256, eps=1e-05, momentum=0.01, affine=True, track_running_stats=True)
          (relu): ReLU(inplace=True)
        )
      )
      (cfem_b): ModuleList(
        (0): BasicConv(
          (conv): Conv2d(512, 512, kernel_size=(7, 1), stride=(1, 1), padding=(3, 0), groups=8, bias=False)
          (bn): BatchNorm2d(512, eps=1e-05, momentum=0.01, affine=True, track_running_stats=True)
        )
        (1): BasicConv(
          (conv): Conv2d(512, 256, kernel_size=(1, 1), stride=(1, 1), bias=False)
          (bn): BatchNorm2d(256, eps=1e-05, momentum=0.01, affine=True, track_running_stats=True)
          (relu): ReLU(inplace=True)
        )
        (2): BasicConv(
          (conv): Conv2d(256, 256, kernel_size=(3, 3), stride=(1, 1), padding=(2, 2), dilation=(2, 2), groups=4, bias=False)
          (bn): BatchNorm2d(256, eps=1e-05, momentum=0.01, affine=True, track_running_stats=True)
          (relu): ReLU(inplace=True)
        )
        (3): BasicConv(
          (conv): Conv2d(256, 256, kernel_size=(1, 7), stride=(1, 1), padding=(0, 3), groups=8, bias=False)
          (bn): BatchNorm2d(256, eps=1e-05, momentum=0.01, affine=True, track_running_stats=True)
        )
        (4): BasicConv(
          (conv): Conv2d(256, 256, kernel_size=(1, 1), stride=(1, 1), bias=False)
          (bn): BatchNorm2d(256, eps=1e-05, momentum=0.01, affine=True, track_running_stats=True)
          (relu): ReLU(inplace=True)
        )
      )
      (ConvLinear): BasicConv(
        (conv): Conv2d(512, 512, kernel_size=(1, 1), stride=(1, 1), bias=False)
        (bn): BatchNorm2d(512, eps=1e-05, momentum=0.01, affine=True, track_running_stats=True)
      )
      (shortcut): BasicConv(
        (conv): Conv2d(512, 512, kernel_size=(1, 1), stride=(1, 1), bias=False)
        (bn): BatchNorm2d(512, eps=1e-05, momentum=0.01, affine=True, track_running_stats=True)
      )
      (relu): ReLU()
    )
    (1): CFEM(
      (cfem_a): ModuleList(
        (0): BasicConv(
          (conv): Conv2d(1024, 1024, kernel_size=(1, 7), stride=(1, 1), padding=(0, 3), groups=8, bias=False)
          (bn): BatchNorm2d(1024, eps=1e-05, momentum=0.01, affine=True, track_running_stats=True)
        )
        (1): BasicConv(
          (conv): Conv2d(1024, 512, kernel_size=(1, 1), stride=(1, 1), bias=False)
          (bn): BatchNorm2d(512, eps=1e-05, momentum=0.01, affine=True, track_running_stats=True)
          (relu): ReLU(inplace=True)
        )
        (2): BasicConv(
          (conv): Conv2d(512, 512, kernel_size=(3, 3), stride=(1, 1), padding=(2, 2), dilation=(2, 2), groups=4, bias=False)
          (bn): BatchNorm2d(512, eps=1e-05, momentum=0.01, affine=True, track_running_stats=True)
          (relu): ReLU(inplace=True)
        )
        (3): BasicConv(
          (conv): Conv2d(512, 512, kernel_size=(7, 1), stride=(1, 1), padding=(3, 0), groups=8, bias=False)
          (bn): BatchNorm2d(512, eps=1e-05, momentum=0.01, affine=True, track_running_stats=True)
        )
        (4): BasicConv(
          (conv): Conv2d(512, 512, kernel_size=(1, 1), stride=(1, 1), bias=False)
          (bn): BatchNorm2d(512, eps=1e-05, momentum=0.01, affine=True, track_running_stats=True)
          (relu): ReLU(inplace=True)
        )
      )
      (cfem_b): ModuleList(
        (0): BasicConv(
          (conv): Conv2d(1024, 1024, kernel_size=(7, 1), stride=(1, 1), padding=(3, 0), groups=8, bias=False)
          (bn): BatchNorm2d(1024, eps=1e-05, momentum=0.01, affine=True, track_running_stats=True)
        )
        (1): BasicConv(
          (conv): Conv2d(1024, 512, kernel_size=(1, 1), stride=(1, 1), bias=False)
          (bn): BatchNorm2d(512, eps=1e-05, momentum=0.01, affine=True, track_running_stats=True)
          (relu): ReLU(inplace=True)
        )
        (2): BasicConv(
          (conv): Conv2d(512, 512, kernel_size=(3, 3), stride=(1, 1), padding=(2, 2), dilation=(2, 2), groups=4, bias=False)
          (bn): BatchNorm2d(512, eps=1e-05, momentum=0.01, affine=True, track_running_stats=True)
          (relu): ReLU(inplace=True)
        )
        (3): BasicConv(
          (conv): Conv2d(512, 512, kernel_size=(1, 7), stride=(1, 1), padding=(0, 3), groups=8, bias=False)
          (bn): BatchNorm2d(512, eps=1e-05, momentum=0.01, affine=True, track_running_stats=True)
        )
        (4): BasicConv(
          (conv): Conv2d(512, 512, kernel_size=(1, 1), stride=(1, 1), bias=False)
          (bn): BatchNorm2d(512, eps=1e-05, momentum=0.01, affine=True, track_running_stats=True)
          (relu): ReLU(inplace=True)
        )
      )
      (ConvLinear): BasicConv(
        (conv): Conv2d(1024, 1024, kernel_size=(1, 1), stride=(1, 1), bias=False)
        (bn): BatchNorm2d(1024, eps=1e-05, momentum=0.01, affine=True, track_running_stats=True)
      )
      (shortcut): BasicConv(
        (conv): Conv2d(1024, 1024, kernel_size=(1, 1), stride=(1, 1), bias=False)
        (bn): BatchNorm2d(1024, eps=1e-05, momentum=0.01, affine=True, track_running_stats=True)
      )
      (relu): ReLU()
    )
  )
  (loc): ModuleList(
    (0): Conv2d(512, 24, kernel_size=(3, 3), stride=(1, 1), padding=(1, 1))
    (1): Conv2d(1024, 24, kernel_size=(3, 3), stride=(1, 1), padding=(1, 1))
    (2): Conv2d(512, 24, kernel_size=(3, 3), stride=(1, 1), padding=(1, 1))
    (3): Conv2d(256, 24, kernel_size=(3, 3), stride=(1, 1), padding=(1, 1))
    (4): Conv2d(256, 16, kernel_size=(3, 3), stride=(1, 1), padding=(1, 1))
    (5): Conv2d(256, 16, kernel_size=(3, 3), stride=(1, 1), padding=(1, 1))
  )
  (conf): ModuleList(
    (0): Conv2d(512, 126, kernel_size=(3, 3), stride=(1, 1), padding=(1, 1))
    (1): Conv2d(1024, 126, kernel_size=(3, 3), stride=(1, 1), padding=(1, 1))
    (2): Conv2d(512, 126, kernel_size=(3, 3), stride=(1, 1), padding=(1, 1))
    (3): Conv2d(256, 126, kernel_size=(3, 3), stride=(1, 1), padding=(1, 1))
    (4): Conv2d(256, 84, kernel_size=(3, 3), stride=(1, 1), padding=(1, 1))
    (5): Conv2d(256, 84, kernel_size=(3, 3), stride=(1, 1), padding=(1, 1))
  )
)

'''